model-checkpoints/model17-protT5-5.pt (torch, 923679 bytes, 8 tensors)

fc1.weight f4 [200, 1024]
0	0xbc367cd6	-0.011138162
1	0x3bfa6828	0.007641811
2	0xbcf6d5d6	-0.030131262
3	0xbba90278	-0.005157765
4	0x3c41ab79	0.011820667
5	0xbc766d23	-0.015040669
6	0x3b89032b	0.004181286
7	0xbcc1ea30	-0.02367124
8	0x3c4fd497	0.012684963
9	0x3cb0b30b	0.02156975
10	0xbba999d1	-0.005175807
11	0x3ba4b918	0.0050269477
12	0xbb9cceff	-0.004785418
13	0xbc4621bb	-0.012093003
14	0xbc86db33	-0.016461944
15	0xbbdcf6f1	-0.006743305
16	0x3b68baaf	0.0035511663
17	0xbc593579	-0.013257378
18	0xbd030ae5	-0.03199281
19	0xbcf4435a	-0.029817272
20	0xbc1e5799	-0.00966444
21	0x3a998531	0.0011712668
22	0xbcccb9ab	-0.024990877
23	0xbc07c5a7	-0.00828687
24	0x3c46d6c7	0.012136168
25	0xbcd8ed99	-0.026480483
26	0x3cd7cd06	0.02634288
27	0xbc6eca3e	-0.0145745855
28	0xbce51b8c	-0.027967237
29	0xbcf7034e	-0.030152943
30	0xbba0f328	-0.004911799
31	0x3a270fb7	0.0006372886
32	0xbc8bd2a1	-0.01706821
33	0x3b8a89af	0.004227839
34	0x3ca25f00	0.01982069
35	0x3c50c45a	0.012742126
36	0xbabf55c0	-0.0014597699
37	0xbb593806	-0.0033144965
38	0xbcd85ca4	-0.026411362
39	0x3cd7f877	0.026363594
40	0x3c40edf3	0.0117754815
41	0xbca2cf5b	-0.019874265
42	0xbc4eba83	-0.01261771
43	0xbbe362e6	-0.00693928
44	0xbce8396a	-0.02834769
45	0x3cef31d7	0.02919857
46	0x3bf0eec9	0.007352684
47	0xbbb444f8	-0.005501386
48	0x3c2c3ccd	0.010512543
49	0x3cd41d9f	0.02589303
50	0x3cd60792	0.026126657
51	0x3cdf2dfd	0.027243609
52	0xbb7a507f	-0.0038194952
53	0xbcc916b3	-0.024546957
54	0x3b119f64	0.0022220248
55	0xbce9790c	-0.028500102
56	0xbb4c348a	-0.0031159245
57	0xbcde4460	-0.027132213
58	0x3bf6b2e2	0.0075286487
59	0xbcaee2f2	-0.02134845
60	0xbc0f7da4	-0.008757982
61	0xbbb4836a	-0.00550883
62	0xbbe12983	-0.0068714037
63	0xba9e7bd3	-0.0012091346
64	0x3c521683	0.01282275
65	0xbc9712f2	-0.018441651
66	0xbc3d92bb	-0.011570628
67	0xba23a020	-0.0006241817
68	0xbc7b4dd8	-0.015338384
69	0x3c82e4a8	0.015978172
70	0xbcab339f	-0.020898638
71	0x3c57836a	0.01315389
72	0xbc5aada4	-0.013347063
73	0x3b4201c7	0.002960311
74	0xbcdcdcde	-0.026960786
75	0x3a7be4c2	0.00096089777
76	0xbc1089ca	-0.008821914
77	0x3c8abec5	0.01693667
78	0xbd004cf2	-0.03132338
79	0xbc31576e	-0.0108240675
80	0x3c371800	0.011175156
81	0x3be96a7f	0.007123291
82	0xbc0ab9a7	-0.0084671145
83	0xbcadf4c3	-0.021234876
84	0x3bf380c6	0.0074311225
85	0x3a4a8f98	0.00077270856
86	0x3c3dc134	0.011581708
87	0xbd0274fa	-0.03184984
88	0x3cb6831c	0.022279315
89	0xbcc2863b	-0.023745647
90	0x3c7a1b1f	0.015265255
91	0xbcf1eb68	-0.029531196
92	0x3c92bf22	0.017913405
93	0xbc8a5590	-0.016886503
94	0xbc4e38d2	-0.012586789
95	0x3cdd4540	0.02701056
96	0xbc68a5e0	-0.014199704
97	0x3c297835	0.010343601
98	0x3c856f37	0.016288383
99	0x3c34ca26	0.011034524
100	0x3ccd3645	0.025050292
101	0xbd0002a8	-0.031252533
102	0xbcaf0a91	-0.021367343
103	0xbcebab7d	-0.028768295
104	0x3cdb2418	0.02675061
105	0xbcd473dd	-0.025934154
106	0xbcbc4b8c	-0.022985242
107	0xbcc7fa1a	-0.02441125
108	0xbc847503	-0.016169077
109	0xbcd0a853	-0.025470888
110	0x3ca4f4a9	0.020136194
111	0x3ccf18b4	0.025280334
112	0xbabc1bfb	-0.00143516
113	0x3c1bf1c6	0.0095180925
114	0x3cce08a9	0.025150614
115	0x3c363fa0	0.011123568
116	0x3c9a4ea7	0.018836332
117	0x3c634b9e	0.013873009
118	0xbc74c51f	-0.014939575
119	0x3abc59bb	0.0014370003
120	0xbc0e9fb8	-0.008705072
121	0xbc0ce7ab	-0.008600156
122	0xbc60dc74	-0.013724435
123	0x3c9a1ee8	0.018813565
124	0x3bedb7ea	0.0072545903
125	0xbc199776	-0.00937449
126	0x3c39cd22	0.011340411
127	0xbcdccedc	-0.026954107
128	0x3b2d1a35	0.0026413326
129	0x3ba31e99	0.0049780128
130	0xbbf1afd1	-0.0073756953
131	0xba90f15d	-0.001105826
132	0x3ce247eb	0.027622184
133	0x3ad44bbf	0.001619689
134	0x3c84f052	0.016227875
135	0xbc3fc12c	-0.011703771
136	0x3c2ed839	0.010671669
137	0x3ccf30a0	0.02529174
138	0x3cd221d8	0.025650904
139	0x3c0f6f99	0.008754634
140	0xbcdb912e	-0.026802626
141	0xbc72bee3	-0.014816019
142	0xbd04d9e2	-0.03243435
143	0xbc569c38	-0.013098769
144	0x3ae51060	0.0017476194
145	0x3c82560a	0.015910167
146	0xbcc6e653	-0.024279749
147	0x3ca1c30e	0.01974633
148	0x3c91f20a	0.017815609
149	0xbc4fdaea	-0.0126864705
150	0xbbfbc983	-0.007683934
151	0xbca80c77	-0.020513756
152	0xbc882d50	-0.01662317
153	0xbc5a32b1	-0.01331775
154	0x3ca33cd0	0.019926459
155	0x3cd38860	0.025821865
156	0x3cbbf1d3	0.02294246
157	0x3c2dc9dc	0.010607209
158	0xbc53c4c8	-0.012925334
159	0xbc72203e	-0.014778195
160	0xbc973cb0	-0.018461555
161	0x3c8ff1e2	0.017571393
162	0xbcc3a45b	-0.023882082
163	0xbcfc23c6	-0.030778777
164	0xbc87a821	-0.016559662
165	0x3c5b2125	0.0133746015
166	0x3c8a7221	0.016900124
167	0xbc2d008e	-0.010559214
168	0xbc81966a	-0.015818793
169	0x3bf4be8d	0.0074690045
170	0x3bb70d4b	0.0055863014
171	0x3a6454bf	0.0008710138
172	0xbd052e2b	-0.032514732
173	0x3bf3fefc	0.007446168
174	0x3cd8ad64	0.026449867
175	0x3cdb20ad	0.02674898
176	0xbcc8dc37	-0.02451907
177	0x3ce1508f	0.027504234
178	0x3bb7d385	0.005609932
179	0x3c922ab3	0.017842626
180	0xbcb721c0	-0.02235496
181	0x3c8b5f31	0.017013164
182	0xbc3b5455	-0.011433681
183	0x3cdec5c5	0.027193913
184	0xbcb527c1	-0.022113683
185	0xbc997968	-0.018734649
186	0x3bd3f771	0.0064687063
187	0xbcf904a6	-0.030397724
188	0xbb185a74	-0.0023247274
189	0xbc3a51d6	-0.01137205
190	0xbc6188ae	-0.013765497
191	0x3c973a74	0.01846049
192	0xbcd4141e	-0.025888499
193	0xbcb5617b	-0.022141209
194	0x3c0e2dbb	0.008677895
195	0xbcfb02cb	-0.03064098
196	0x3c5824d8	0.013192378
197	0x3cc71a1a	0.024304438
198	0xbcb54cff	-0.022131441
199	0x3afaf0ed	0.0019145288
200	0xbbecbc4b	-0.0072245947
201	0x3bbcabe1	0.0057577942
202	0x3ce461bd	0.027878636
203	0xbca665f4	-0.020312287
204	0x3cd1c5ef	0.025607077
205	0xbcd5202f	-0.026016323
206	0x3b77ac9d	0.0037792095
207	0x3cdb463d	0.02676689
208	0xbd012f02	-0.03153897
209	0xbc33573a	-0.010946089
210	0x3cb78152	0.022400532
211	0x3cef8779	0.029239403
212	0xbb9f734a	-0.0048660384
213	0x3ae34c9e	0.0017341559
214	0x3ce8b007	0.028404249
215	0x3cabec2f	0.020986645
216	0xbc46a4d8	-0.012124263
217	0x3c0678b0	0.008207485
218	0x3c29eae1	0.010370941
219	0x3cb9b70f	0.022670297
220	0x3c59a290	0.013283387
221	0xbc1ded1c	-0.009639051
222	0xbcc42b11	-0.023946317
223	0x3b5cc8a5	0.003368893
224	0x3c256c57	0.010096631
225	0x3c08aedf	0.008342474
226	0x3c80f5b6	0.015742164
227	0x3ccde1c2	0.025132064
228	0x3c0def63	0.008663031
229	0xbcad3cad	-0.021147097
230	0x3b5dfd5e	0.0033872942
231	0xbac424fd	-0.0014964637
232	0xb901ad10	-0.0001236687
233	0x3c240ddd	0.010013071
234	0x3c9174fe	0.017755982
235	0xbccb5d7c	-0.02482485
236	0x3c9a42c1	0.018830659
237	0xbcdd6368	-0.02702494
238	0xbb26a7db	-0.002542964
239	0x3cd782cf	0.026307492
240	0xbc06e0b8	-0.008232288
241	0xbc9a71df	-0.018853126
242	0x3c428f7b	0.011875029
243	0xbcb95690	-0.022624284
244	0xbcd7b190	-0.026329786
245	0x3c6e5e0d	0.014548791
246	0xbbe6b1b7	-0.007040228
247	0x3ba9895c	0.005173845
248	0xbc95fbab	-0.018308481
249	0xbc2cc745	-0.010545556
250	0xbc8349f9	-0.016026484
251	0x3bb988ea	0.0056620734
252	0xbb463c4f	-0.003024835
253	0xbc0a9081	-0.008457304
254	0xbcc56a9a	-0.024098683
255	0x3c8addd1	0.016951473

fc1.bias f4 [200]
0	0x3cb48baa	0.022039253
1	0xbc91c32e	-0.017793264
2	0xbcad7063	-0.021171754
3	0x3c8ca58b	0.01716878
4	0xbcdf4494	-0.02725438
5	0x3ca6c36a	0.020356853
6	0x3cc4c1ff	0.024018286
7	0xbc43d6b5	-0.011953046
8	0x3aed1d13	0.001809033
9	0x3845bfbc	4.7147027e-05
10	0x3cd8fda8	0.02648814
11	0x3cd7ce3d	0.02634346
12	0x3c91c964	0.017796226
13	0xbc88d2ce	-0.016702082
14	0x3cc7740e	0.024347331
15	0x3b76ffb6	0.0037689037
16	0x3c8dfe0e	0.017333057
17	0xbc979545	-0.018503794
18	0xbc2cf416	-0.0105562415
19	0xbc32f194	-0.0109218545
20	0x3c91abb8	0.017782077
21	0xbc6f0e34	-0.014590789
22	0xbbdece00	-0.0067994595
23	0xbcde73d0	-0.027154833
24	0xbcef88e8	-0.029240087
25	0x3cfa5700	0.030559063
26	0xbcd473b8	-0.025934085
27	0x3cf6c532	0.030123327
28	0x3c926107	0.017868532
29	0xbcf224fe	-0.029558655
30	0xbcba6ab3	-0.022755956
31	0x3c1346dc	0.008989062
32	0x3cbaf5c5	0.02282227
33	0x3ce48844	0.027897008
34	0xbb3df71e	-0.0028986405
35	0xbcf30980	-0.029667616
36	0xbcab3cda	-0.02090304
37	0xbc4b3054	-0.012401659
38	0xbc6c9932	-0.0144408215
39	0xbb939662	-0.004504011
40	0xbc8ef02c	-0.017448507
41	0x3a8f7d34	0.0010947348
42	0xbc90d1cd	-0.017678166
43	0xbc650071	-0.013977156
44	0x3b70cc3a	0.0036742822
45	0xbbaf09c0	-0.0053417385
46	0xb9005e1e	-0.00012242093
47	0x3c4cea55	0.012507041
48	0xbcb03ce2	-0.021513406
49	0x3bf672a7	0.007520992
50	0xbbf30955	-0.007416884
51	0x3cd8dcab	0.02647241
52	0xbbae4a10	-0.0053188875
53	0x3ca2ae17	0.019858403
54	0x3ccd3428	0.025049284
55	0xbc7a4c01	-0.01527691
56	0xbc8e58a6	-0.017376255
57	0xbc3ca91a	-0.011514926
58	0x3c29f10a	0.01037241
59	0xbc7fbd20	-0.015609056
60	0x3a2455fd	0.0006268917
61	0x3c4792b0	0.012180969
62	0xbb8ad8db	-0.004237277
63	0x3b3bdfdb	0.0028667364
64	0x3c569278	0.013096444
65	0x3b8a6975	0.0042239972
66	0x3cce12d3	0.02515546
67	0xbcf2e201	-0.029648783
68	0x3c5839bb	0.013197358
69	0x3ba45fd9	0.0050163087
70	0x3c0f64e0	0.008752078
71	0x3c8e78f6	0.017391663
72	0x3aa792a7	0.0012784795
73	0xbbc333f8	-0.005957123
74	0xbd06f38f	-0.03294712
75	0xbd03a6e4	-0.03214158
76	0x3ce29c80	0.027662516
77	0x3cd56e7a	0.026053656
78	0xbc8de0d0	-0.017319113
79	0xbb2e7cf1	-0.0026624764
80	0xbbbec4e4	-0.005821811
81	0xba1873c6	-0.00058155914
82	0x3cc960bc	0.02458226
83	0xbc955c80	-0.018232584
84	0x3cb7c04a	0.022430558
85	0xbcdbce0a	-0.026831646
86	0x3d084617	0.033269968
87	0x3c9e65d4	0.019335665
88	0x3ce5b8b2	0.028042171
89	0xbc5b7824	-0.013395343
90	0x3ccae384	0.024766691
91	0xbc1f541c	-0.009724643
92	0xbc9e3b7b	-0.019315472
93	0x3c338468	0.010956861
94	0x3ce5cb2a	0.028050978
95	0x3bbb18c0	0.0057097375
96	0xbce903e3	-0.028444236
97	0xbcd56fd4	-0.0260543
98	0x3cdd9af4	0.027051426
99	0xbc2d5ba8	-0.010580935
100	0xbcd854de	-0.026407655
101	0x3b6acc3e	0.0035827304
102	0xbc7f47dd	-0.015581098
103	0x3c873554	0.016504921
104	0xbc085298	-0.008320473
105	0xbbf2dedd	-0.0074118213
106	0xbb8f014a	-0.0043641673
107	0x3a23a5c9	0.00062426605
108	0x3bd39308	0.0064567365
109	0x3cc09306	0.023507606
110	0x3c5e0341	0.0135505805
111	0x3cbf92e8	0.02338548
112	0x38af1c5d	8.349933e-05
113	0x3c814cfa	0.015783776
114	0xbbb6da57	-0.0055802274
115	0x3c917310	0.017755061
116	0x3c869bd6	0.01643173
117	0xbcd531c1	-0.026024701
118	0x3bb08310	0.0053867176
119	0x3cc624c7	0.024187459
120	0xba6f21e6	-0.0009122178
121	0xbc84ffcc	-0.016235255
122	0x3cafc8a9	0.021457987
123	0x3d1531da	0.036424495
124	0x3cc831c3	0.02443779
125	0x3cc7f796	0.02441005
126	0x3c1de4fd	0.009637115
127	0x3ce90843	0.028446322
128	0x3cb851c9	0.022499936
129	0x3c8d4260	0.017243564
130	0x3cca86f1	0.024722548
131	0xbcf48777	-0.02984975
132	0x3ca058d9	0.019573616
133	0xbc6dc01b	-0.014511134
134	0x3c74ce95	0.014941831
135	0x3ca0b2eb	0.019616565
136	0xba14a246	-0.00056699326
137	0xbc221ac6	-0.009894079
138	0x38dfe000	0.00010675192
139	0x3cc0db59	0.023542093
140	0xb941965a	-0.00018461925
141	0xbb1dc78f	-0.0024075245
142	0xbcea591d	-0.028606946
143	0x3cf76678	0.030200228
144	0x3cc0d726	0.02354009
145	0xbcfd3a66	-0.030911636
146	0xbbbabac8	-0.0056985356
147	0xbcf9b915	-0.030483762
148	0x3c97d816	0.018535655
149	0xbcb4fff0	-0.022094697
150	0xbad107ef	-0.0015947799
151	0xbc8243b8	-0.015901431
152	0x3cbb1581	0.022837402
153	0xbbba60a1	-0.0056877886
154	0x3d001d46	0.031277917
155	0x3c95ac50	0.018270642
156	0x3cd8f7bf	0.026485322
157	0x3c81496e	0.015782084
158	0x3c5577df	0.013029068
159	0x3cc24136	0.023712736
160	0xbbddb990	-0.0067665055
161	0x3c0620fc	0.008186575
162	0xbcd0645a	-0.025438476
163	0xbab6c400	-0.0013943911
164	0x3c2280a8	0.009918369
165	0x3b865e77	0.0041006166
166	0xbaa6620d	-0.0012694016
167	0xbc6d5189	-0.0144847715
168	0xb90439b1	-0.00012609993
169	0xbcf79f72	-0.030227397
170	0x3c468aaa	0.012118021
171	0x3cae8570	0.021303862
172	0x3b2278b3	0.002479118
173	0xbc82ec4c	-0.015981816
174	0xbca8bf80	-0.020599127
175	0x3cc4f074	0.024040438
176	0xbc8e238a	-0.01735093
177	0xbc104321	-0.008805067
178	0xbb99043d	-0.0046696947
179	0x3c993bbd	0.018705243
180	0x3cc170cc	0.023613356
181	0xbb5f7dd8	-0.0034102108
182	0x3cfb35ae	0.030665245
183	0xbcdc1835	-0.026867012
184	0x3bce3b61	0.0062936996
185	0x3ba78607	0.005112413
186	0x3bfb22d8	0.007664066
187	0xbcbb84fe	-0.022890564
188	0xbc7c8ee6	-0.015414929
189	0xbc3a33a6	-0.011364853
190	0xbc608f5e	-0.013706056
191	0x3c4744b0	0.0121623725
192	0xb88228fd	-6.206518e-05
193	0xbca9502e	-0.020668115
194	0x3bf59ab2	0.0074952478
195	0xbca787f7	-0.020450575
196	0xbc90f224	-0.017693587
197	0xbcaf6a7a	-0.021413077
198	0x3cf8799b	0.030331424
199	0xbc479d6c	-0.012183528

fc2.weight f4 [100, 200]
0	0x3ab7af74	0.0014014081
1	0x3d0c7d95	0.03429945
2	0x3c81f132	0.015862081
3	0x3b96354e	0.004583991
4	0xbc1d4512	-0.009598987
5	0x3d83dc3f	0.06438493
6	0xbd115997	-0.03548583
7	0xbcb6b2b3	-0.022302007
8	0x3d2af738	0.041739672
9	0x3d725133	0.05915947
10	0x3c82c4cb	0.015962979
11	0xbd5d212c	-0.053986713
12	0xbd723774	-0.059134915
13	0x3d89f4bc	0.067361325
14	0xbd1a78fa	-0.03771303
15	0xbd8c2016	-0.068420574
16	0xbd881bb8	-0.06645912
17	0xbd39d137	-0.04536554
18	0xbcadcdbe	-0.02121627
19	0xbd1ff81c	-0.039054975
20	0xbc95d870	-0.018291682
21	0xbd63b615	-0.05559357
22	0x3d84390b	0.064561926
23	0xbcd08637	-0.025454624
24	0xbbf32890	-0.007420607
25	0xbd5e826c	-0.0543236
26	0x3d6a1b15	0.057154734
27	0x3bf1c3b6	0.007378067
28	0x3b20e25f	0.002454899
29	0x3cfeb773	0.031093335
30	0x3d0c9881	0.034325127
31	0xbd82d81a	-0.06388874
32	0x3cb0e40a	0.021593112
33	0xbd213458	-0.03935656
34	0x3d8956e5	0.06706027
35	0x3d88e5bd	0.06684444
36	0xbd8199f4	-0.06328192
37	0x3d3245f3	0.04352374
38	0xbba3407e	-0.0049820533
39	0x3d3fd978	0.046838254
40	0x3c8925da	0.016741682
41	0xbd66cd21	-0.05634797
42	0x3cb49bca	0.022046942
43	0xbd25403b	-0.040344458
44	0x3d27d1f9	0.04097173
45	0x3cd1841f	0.025575696
46	0x3d7b7848	0.061394006
47	0xbd81dfd3	-0.06341519
48	0x3d13395a	0.035943367
49	0x3d6ab26e	0.05729907
50	0xbd72098f	-0.059091147
51	0xbd69bf07	-0.057066943
52	0xbd624693	-0.055243086
53	0x3b868d70	0.004106216
54	0xbd2c22ec	-0.04202549
55	0x3d451305	0.04811384
56	0x3cd32620	0.025775015
57	0xbd40bf9c	-0.047057733
58	0x3d7c8c4e	0.061657242
59	0xbd903a22	-0.07042338
60	0xbd55094b	-0.052010816
61	0x3bdc79c3	0.0067283823
62	0x3c4358f3	0.011923063
63	0xbd67c3ab	-0.056583088
64	0x3d1b9f34	0.037993625
65	0xbd794c7a	-0.06086395
66	0x3d882ee6	0.0664957
67	0xbd833c43	-0.064079784
68	0xbc7a8759	-0.015291058
69	0xbd3e02eb	-0.0463895
70	0xbc168143	-0.009186092
71	0xbcc31b69	-0.023816781
72	0xbd50a2d2	-0.050936528
73	0xbbfb8dd8	-0.007676821
74	0xbd6cfc2f	-0.05785769
75	0x3d186360	0.037204146
76	0x3d006d6a	0.031354345
77	0xbd2aeb0e	-0.041728072
78	0xbd32d17c	-0.04365681
79	0xbcccc7c0	-0.024997592
80	0xbd873696	-0.06602208
81	0x3cd7237d	0.02626204
82	0xbc069b67	-0.008215762
83	0x3cf0209e	0.029312428
84	0x3d8a0ad0	0.067403436
85	0x3d2c6133	0.042084884
86	0xbd21fa8b	-0.039545577
87	0xbcfc6067	-0.030807687
88	0xbc359670	-0.01108323
89	0xbd551f22	-0.052031644
90	0x3d83b046	0.06430106
91	0xbc0c1d3b	-0.008551891
92	0xba8d2614	-0.0010768794
93	0x3d4f20c7	0.05056837
94	0xbc585ae1	-0.013205261
95	0xbcf7076d	-0.030154908
96	0x3d8dbe5f	0.06921076
97	0xbce24095	-0.027618686
98	0xbcdafe8f	-0.026732711
99	0xbc894e18	-0.01676087
100	0xbd928efc	-0.07156178
101	0x3bab496b	0.005227258
102	0xbc94bce8	-0.018156484
103	0x3d8450bd	0.06460712
104	0xbd37a5ab	-0.044835728
105	0x3cf06bf5	0.029348353
106	0xbd910d6e	-0.0708264
107	0x3d5c32ad	0.053759266
108	0x3ce4842a	0.027895052
109	0xbc812d32	-0.015768621
110	0xbd11e22e	-0.035616092
111	0xbc9b6e82	-0.018973593
112	0xbc86aefc	-0.01644086
113	0xbd78d488	-0.06074956
114	0x3c7c24d9	0.015389645
115	0x3d6cb498	0.057789415
116	0xbce64609	-0.028109567
117	0xbd04d184	-0.032426372
118	0xbd20105d	-0.039078105
119	0x3cd8fbad	0.026487196
120	0x3d389e8c	0.045073077
121	0x3ba3b6db	0.0049961633
122	0x3921193d	0.00015363558
123	0x3d8499d4	0.06474653
124	0x3cb961ce	0.022629645
125	0xbc888204	-0.016663559
126	0x3c0ca7e3	0.008584949
127	0x3ce440a8	0.027862862
128	0xbc030da7	-0.00799886
129	0x3d4d079a	0.050056078
130	0xbd874bb8	-0.06606239
131	0xbcba35d3	-0.022730744
132	0x3ce9d7b3	0.028545236
133	0xbb93180a	-0.0044889497
134	0xbd861273	-0.06546488
135	0xbd0e89da	-0.034799434
136	0xbd74e67a	-0.059790112
137	0x3cc26d79	0.023733841
138	0x3c97f7e3	0.018550819
139	0xbcca22ea	-0.024674851
140	0x3cf3a627	0.029742314
141	0xbb93d778	-0.00451177
142	0xbd777cfd	-0.060421932
143	0xbb6b37cd	-0.0035891414
144	0xbce8a687	-0.028399719
145	0x3cdf4235	0.02725325
146	0x3d120af0	0.035654962
147	0xbc418262	-0.011810871
148	0x3bef8ad9	0.007310253
149	0xbd370c87	-0.04468968
150	0xbd815280	-0.06314564
151	0x3d851453	0.06498017
152	0xbd286c90	-0.04111916
153	0xbce41c67	-0.027845575
154	0xbd2f6b86	-0.04282715
155	0xbd61bcd6	-0.05511173
156	0xbc9ff7b4	-0.019527294
157	0xbabd798c	-0.001445578
158	0x3cd2facf	0.02575436
159	0x3d8bbf23	0.06823566
160	0x3d5bc4b3	0.053654384
161	0x3d88bd59	0.0667674
162	0xbc83a1cb	-0.01606836
163	0x3d65e0c5	0.05612256
164	0xbc7f7ab0	-0.015593216
165	0x3cbf24dc	0.023333006
166	0xbc8c3ff3	-0.017120337
167	0x3cc17994	0.023617543
168	0xbd6ded8b	-0.058087867
169	0xbcb22c82	-0.021749739
170	0x3bef30a1	0.007299498
171	0x3cb5cf5d	0.022193605
172	0x3d11d603	0.035604488
173	0xbd6e9932	-0.058251567
174	0x3c31b679	0.0108467275
175	0x3d2bf76b	0.041984003
176	0xbb933773	-0.004492694
177	0xba342cc7	-0.00068731274
178	0xbb24faed	-0.0025173977
179	0x3d059a08	0.0326176
180	0x3d66ca76	0.056345426
181	0xbd180cdf	-0.03712165
182	0x3c78aa3f	0.015177309
183	0x395d116f	0.00021082697
184	0x3c21b242	0.00986916
185	0xb9f62de2	-0.00046954962
186	0x3b2879d7	0.0025707388
187	0x3d684f87	0.05671647
188	0x3c76da59	0.015066707
189	0x3d576b32	0.052592464
190	0xbd3a50eb	-0.045487326
191	0x3d2aacfa	0.04166887
192	0x3d44f7e1	0.04808796
193	0x3d05a367	0.032626536
194	0x3d3da279	0.046297524
195	0x3d8eee0e	0.06978999
196	0x3cd5d4fe	0.02610254
197	0x3d6a376f	0.05718177
198	0xbd828706	-0.0637341
199	0x3d1388d4	0.03601916
200	0x3d792419	0.06082544
201	0xbd668cdf	-0.05628669
202	0xbd8c7a35	-0.06859247
203	0x3d5e4410	0.05426413
204	0x3d247336	0.040148936
205	0x3d69e9e3	0.057107817
206	0x3d7c4bc8	0.061595708
207	0xbd6b4704	-0.057440773
208	0x3c88188a	0.016613264
209	0x3cab5720	0.020915568
210	0x3be77196	0.007063101
211	0xbd6c9812	-0.057762213
212	0x3c729f2b	0.014808456
213	0xbcd8cf49	-0.026466029
214	0xbcf52f81	-0.029929878
215	0x3d076342	0.033053644
216	0x3c2ff1ed	0.010738832
217	0x3d65c847	0.056099202
218	0x3d6db5bf	0.058034655
219	0x3ca40bfa	0.020025242
220	0x3d8747e2	0.066055074
221	0x3d681d2f	0.056668457
222	0x3ccc1ea4	0.024916954
223	0xbd0d8d80	-0.034558773
224	0xbd635d9a	-0.055509187
225	0xbd588fc2	-0.052871473
226	0xbd8310fd	-0.06399725
227	0xbd41e4be	-0.047337286
228	0xbd07db8a	-0.033168353
229	0xbcd655f1	-0.026164027
230	0x3d30ac27	0.043132927
231	0xbcd80965	-0.026371667
232	0x3d53c9c2	0.051706083
233	0x3a214e79	0.0006153356
234	0x3aad65e7	0.0013229222
235	0x3d6083f5	0.054813344
236	0x3d87688f	0.0661174
237	0xbd6bcf21	-0.05757058
238	0xbcfea0ef	-0.031082598
239	0x3d182c90	0.037151873
240	0xbd180285	-0.037111778
241	0x3d2e1593	0.042501044
242	0xbd4ee3e0	-0.050510287
243	0x3c97ea1e	0.018544253
244	0xbcf3c4d3	-0.029756939
245	0x3cb707a8	0.022342518
246	0xbd7f17ae	-0.062278442
247	0x3abab3e5	0.0014244287
248	0xbcd364b7	-0.02580486
249	0x3d4b0dc6	0.049573682
250	0xbd841ab6	-0.06450407
251	0xbbaf0a11	-0.005341776
252	0x3ca01868	0.019542888
253	0x3d7bbd2b	0.0614597
254	0xbbb11c2f	-0.005404971
255	0xbcfb5a3a	-0.030682672

fc2.bias f4 [100]
0	0xbc3695bf	-0.011144101
1	0xbd483800	-0.04888153
2	0xbcec99cd	-0.028881932
3	0xbd8372e6	-0.064183995
4	0xbca6cb42	-0.020360593
5	0x3d7e3353	0.062060665
6	0xbd582c06	-0.05277636
7	0xbd87dedc	-0.06634304
8	0x3cd5ca43	0.026097422
9	0xbd8b5e28	-0.06805068
10	0xbd401f74	-0.046904996
11	0xbd489ac4	-0.04897572
12	0x3d83caef	0.06435191
13	0xbbb1289a	-0.0054064514
14	0xbc34ad33	-0.011027622
15	0x3d924625	0.07142285
16	0x3c6739b5	0.0141128795
17	0xbd8a83e2	-0.06763436
18	0xbc7d3018	-0.015453361
19	0xbd2887a0	-0.041144967
20	0xbc8101af	-0.015747873
21	0xbc1d4153	-0.009598094
22	0xbc01d875	-0.0079251425
23	0x3d299dcd	0.041410256
24	0x3d8a6d0c	0.0675908
25	0x3d9ea9bf	0.0774722
26	0x3d135ccc	0.03597717
27	0x3c40671e	0.011743335
28	0x3d4e7aad	0.05040996
29	0xbd4e7d18	-0.050412267
30	0x3d198065	0.037475962
31	0x3a789f92	0.0009484227
32	0x3d4be1ff	0.049776074
33	0xbcc1938a	-0.023629922
34	0xbd4e217d	-0.050324906
35	0x3d3705c8	0.044683248
36	0x3c328b44	0.010897461
37	0xbd8d7547	-0.069071345
38	0xbcc6c214	-0.024262466
39	0x3d8e8359	0.06958646
40	0xbc188aa5	-0.009310399
41	0x3d875462	0.066078916
42	0xbc67e8e9	-0.014154651
43	0xbc9652fb	-0.018350115
44	0x3cfe2096	0.031021398
45	0xbd21ee83	-0.039534103
46	0x3c58071d	0.01318529
47	0xbd68f6e5	-0.056876082
48	0xbc396690	-0.011315957
49	0xbba28fca	-0.0049609886
50	0xbcb4fabc	-0.022092216
51	0x3cacff4d	0.02111783
52	0x3c98b377	0.018640263
53	0xbcd8ba06	-0.02645589
54	0x3d306552	0.043065377
55	0xbd925bbe	-0.07146405
56	0xbd2cb57d	-0.04216527
57	0x3d844e06	0.06460194
58	0x3d8ebeff	0.06970023
59	0x3ce6e694	0.02818612
60	0x3c78e9ab	0.01519243
61	0x3d20656e	0.03915923
62	0x3d190f92	0.037368365
63	0xbd8365d8	-0.064159095
64	0xbcbb75f6	-0.022883397
65	0x3ca1a414	0.019731559
66	0x3d275a0c	0.04085736
67	0xbd1944f3	-0.03741927
68	0xbd248138	-0.040162295
69	0xbc8b3500	-0.016993046
70	0x3d863712	0.065534726
71	0xbd5d611d	-0.054047693
72	0xbd2ae0db	-0.041718345
73	0xbd3bcd05	-0.04584982
74	0x3d165db2	0.03671045
75	0xbd81439f	-0.06311726
76	0xbd842151	-0.06451667
77	0xbd48ded3	-0.049040627
78	0x3cd93fde	0.026519712
79	0xbd57fa16	-0.052728735
80	0xbd54a7ea	-0.051917948
81	0x3d3dd7fc	0.046348557
82	0x3d5608b6	0.0522544
83	0x3ad6f072	0.0016398563
84	0xbd07561e	-0.033041112
85	0xbd6e6d74	-0.05820985
86	0xbd1d0a19	-0.038339708
87	0xbd00e61a	-0.031469442
88	0xbb96b1cc	-0.0045988318
89	0xbd40be54	-0.04705651
90	0xbd5d41a9	-0.054017697
91	0x3d8cfffa	0.06884761
92	0x3c0cac50	0.008586004
93	0xbcc5ab96	-0.02412967
94	0xbd8cf7d7	-0.06883209
95	0x3c1d1d47	0.0095895
96	0xbd245d62	-0.04012812
97	0x3d910865	0.07081679
98	0xbc877d5e	-0.016539272
99	0x3d11f698	0.03563556

fc3.weight f4 [50, 100]
0	0xbd0a49ad	-0.03376167
1	0xbd52095d	-0.05127846
2	0xbcdf4002	-0.027252201
3	0x3d5addda	0.05343423
4	0xbda3c01c	-0.07995626
5	0x3d88407b	0.06652924
6	0xbdb398a5	-0.08769349
7	0x3dc2ca23	0.09511211
8	0x3b8d660c	0.0043151435
9	0xbd6cbfd3	-0.057800125
10	0x3d19edba	0.03758023
11	0xba9bb546	-0.0011879585
12	0x3d6a5539	0.05721018
13	0xbbd4d21c	-0.0064947736
14	0x3db5bb6b	0.08873638
15	0xbd17e4ea	-0.037083544
16	0x3d0fc2a3	0.03509773
17	0xbd53109c	-0.05152951
18	0xbd6df5aa	-0.05809561
19	0x3cc37be4	0.023862787
20	0xbd01d67a	-0.03169868
21	0xbc4b9b36	-0.012427142
22	0xbbb958cd	-0.005656338
23	0x3dc8482c	0.09779391
24	0xbd586c74	-0.052837804
25	0x3c1e27d4	0.00965305
26	0x3c713865	0.014722918
27	0xbd684e33	-0.0567152
28	0x3ba8a520	0.0051466376
29	0x3ce2c08f	0.02767971
30	0xbd96b90c	-0.07359514
31	0x3db87195	0.09006039
32	0xbd852101	-0.065004356
33	0xbd9ea3d1	-0.07746089
34	0xbda0c589	-0.07850177
35	0xbda02b50	-0.07820761
36	0x3d1b523f	0.037920233
37	0x3d84804b	0.064697824
38	0xbdadbb50	-0.08482993
39	0xbd947a80	-0.072499275
40	0x3dbb61eb	0.09149536
41	0xbd89729c	-0.06711313
42	0xbd93e303	-0.072210334
43	0x3dae7b9d	0.08519671
44	0x3dc0e580	0.09418774
45	0xbc670043	-0.0140991835
46	0x3c05e9ce	0.008173419
47	0x3da3f3e8	0.08005506
48	0xbb75af00	-0.0037488341
49	0x3dbad14b	0.09121951
50	0xbd5f3ee0	-0.05450332
51	0xbc2d785a	-0.010587776
52	0xbcdfb8fa	-0.027309883
53	0x3d0404f7	0.032231297
54	0xbc93e82e	-0.018055048
55	0x3db11be5	0.086478986
56	0xbcd997e7	-0.02656169
57	0xbd18e52f	-0.03732794
58	0xbd37f320	-0.044909596
59	0x3c8035e0	0.01565069
60	0xbdc4384c	-0.0958105
61	0xbd4af1a2	-0.049546845
62	0x3cab2f0f	0.020896463
63	0xbd24432b	-0.04010312
64	0xbd95d14f	-0.07315313
65	0xbc75ca54	-0.015001852
66	0x3db190bf	0.08670186
67	0xbdb47b43	-0.08812573
68	0x3ce78653	0.028262293
69	0x3c0d98e4	0.008642409
70	0x3dbf9bad	0.09355865
71	0x3d62e93b	0.055398207
72	0x3dca1ad5	0.09868399
73	0xbd3e3b62	-0.04644335
74	0xbc30d673	-0.010793316
75	0xbda895ae	-0.08231674
76	0x3d2b5607	0.04183009
77	0xbd7699c0	-0.06020522
78	0x3d1dc4f0	0.038517892
79	0xbd95db6b	-0.07317241
80	0x3d91c9aa	0.071185425
81	0x3d995538	0.07486957
82	0xbd2b84c7	-0.041874673
83	0xbd3c0ca7	-0.045910504
84	0xbda0557c	-0.07828805
85	0x3db5feb8	0.08886474
86	0x3cbeeac2	0.0233053
87	0xbd6765a3	-0.056493413
88	0xbc7c6fd7	-0.015407524
89	0xbd890f2c	-0.06692347
90	0xbd234f27	-0.039870407
91	0x3d0949e5	0.033517737
92	0x3d823bd9	0.06359071
93	0x3dc1543f	0.09439897
94	0x3d8cc6f3	0.06873884
95	0x3d90720a	0.07053001
96	0x3da402a8	0.08008319
97	0x3d9e773b	0.07737585
98	0xbd51af71	-0.051192705
99	0x3da2e3fe	0.07953642
100	0xbdbc4f1e	-0.09194778
101	0x3db1f8ff	0.0869007
102	0xbda772c5	-0.081761874
103	0x3db39ef8	0.08770555
104	0x3c393ecc	0.011306476
105	0xbc91d660	-0.017802417
106	0xbcf06e13	-0.029349362
107	0xbdbd08ef	-0.092302196
108	0x3bb45cbf	0.0055042203
109	0xbbb89f97	-0.005634259
110	0xbdedf1e5	-0.11618403
111	0xbdd4cee1	-0.103910215
112	0x3c8cc4a4	0.01718361
113	0x3c46f6d2	0.0121438075
114	0x3d11207d	0.035431374
115	0xbc201a42	-0.009771885
116	0xbc03df7c	-0.008048888
117	0xbd63a447	-0.05557659
118	0x3d8967a8	0.06709224
119	0x3df1bb1d	0.11803267
120	0xbd018cd0	-0.03162843
121	0xbdad74b9	-0.08469529
122	0xbd1b6275	-0.037935693
123	0xbcbb6554	-0.022875465
124	0x3dbcdd6c	0.0922192
125	0xbc9535af	-0.018214075
126	0x3dad0631	0.084484465
127	0x3db2bd4f	0.08727514
128	0xbd326387	-0.043551948
129	0x3da8930e	0.082311735
130	0xbdfa868c	-0.12232694
131	0x3de2297f	0.11043071
132	0xbe056643	-0.13027291
133	0xbdd4f128	-0.103975594
134	0xbc78a5d1	-0.015176252
135	0xbd746fb7	-0.059676852
136	0xbdaeb750	-0.08531058
137	0x3d762f63	0.060103785
138	0xbd68043f	-0.056644674
139	0xbbd50910	-0.0065013245
140	0xbc8678e0	-0.01641506
141	0x3cf202f9	0.029542433
142	0x3cf53adb	0.029935291
143	0x3dc03587	0.093852095
144	0x3df2bb47	0.118521266
145	0xbcd25d52	-0.025679264
146	0xbd569d1b	-0.05239592
147	0x3d6cf840	0.057853937
148	0x3d9b73b5	0.07590429
149	0xbd2593b2	-0.040424056
150	0xbd4dd900	-0.050255775
151	0x3cab55b3	0.020914888
152	0x3d1182a3	0.035524976
153	0x3d78979d	0.060691465
154	0x3bdd1b22	0.0067476192
155	0x3d835903	0.06413462
156	0xbca7cea9	-0.020484285
157	0xbcdcb8c1	-0.026943566
158	0x3d44c89e	0.048042886
159	0x3dc51d17	0.09624689
160	0x3dcb23b9	0.09918923
161	0xbe027408	-0.12739575
162	0x3d245cc3	0.040127527
163	0xbd8f6ed0	-0.07003558
164	0x3e01c78e	0.1267378
165	0x3b7496cb	0.0037321325
166	0x3d307f1c	0.04308997
167	0xbca0748d	-0.019586826
168	0x3d6618a4	0.056175843
169	0x3d569768	0.052390486
170	0x3d571f75	0.052520234
171	0xbd866b87	-0.06563478
172	0xbccdd153	-0.025124228
173	0x3d541b8f	0.051784094
174	0xbd95ba6f	-0.0731095
175	0xbda2f6e9	-0.079572506
176	0xbd72c745	-0.05927207
177	0x3cd5c027	0.026092602
178	0x3d825f9b	0.063658915
179	0x3da62813	0.08113112
180	0xbdb9e27e	-0.09076403
181	0xbdea58c5	-0.11442713
182	0x3df43509	0.11924178
183	0x3df6aefd	0.12045095
184	0x3d1479c7	0.03624895
185	0x3d6cba70	0.05779499
186	0x3d9b89a5	0.07594613
187	0x3cc70bf3	0.02429769
188	0xbcdef3a1	-0.02721578
189	0xbd5e9c0d	-0.05434804
190	0xbc7c2a6a	-0.015390972
191	0x3c26830e	0.010163082
192	0x3d1595db	0.036519866
193	0x3d7d7027	0.061874535
194	0xbd4c0ed3	-0.049818825
195	0xbd23d2a3	-0.0399958
196	0xbd76a8dd	-0.060219634
197	0x3d1dc70b	0.0385199
198	0x3d0af2c2	0.03392292
199	0x3bef573c	0.0073041003
200	0x3ca43b23	0.02004773
201	0x3da4aace	0.08040391
202	0x3dfe1dba	0.12408014
203	0x3dab82a8	0.0837453
204	0x3de90205	0.11377338
205	0x3db0d4e0	0.08634353
206	0xbdbf48a6	-0.093400285
207	0x3d4f382a	0.05059067
208	0x3cff4577	0.031161053
209	0xbd0b0af0	-0.033945978
210	0x3d8dab6a	0.0691746
211	0x3d7131d8	0.058885425
212	0xbc9ab799	-0.018886374
213	0x3a84c037	0.0010128085
214	0xbd6cd2c0	-0.057818174
215	0x3abc6395	0.001437294
216	0x3d7f2dbe	0.062299483
217	0xbca7d31d	-0.020486409
218	0xbe07d547	-0.13264953
219	0xbc8589c9	-0.016301053
220	0xbcaf2a64	-0.021382518
221	0xbcf13e6b	-0.029448709
222	0xbd30f261	-0.0431999
223	0x3dc32a3f	0.09529542
224	0xbc38befe	-0.011276005
225	0x3d180d42	0.03712202
226	0x3d093d74	0.033505872
227	0x3b05ddcd	0.0020426393
228	0x3d852581	0.06501294
229	0x3d9e6f21	0.0773604
230	0x3db8ab1f	0.09017014
231	0xbd863606	-0.06553273
232	0xbcc299dd	-0.023755008
233	0x3d54817c	0.0518813
234	0xbdbe7793	-0.09300151
235	0xbd6a9a1a	-0.05727587
236	0x3dab837f	0.0837469
237	0x3ce2fdba	0.027708877
238	0x3dde7e3f	0.10863923
239	0x3d532263	0.051546466
240	0x3dbd576d	0.09245191
241	0x3d10ebd0	0.03538114
242	0xbccdd9d4	-0.025128283
243	0xbd103e9d	-0.035215963
244	0xbcd2eab6	-0.025746685
245	0xbd830297	-0.06396978
246	0xbe0582f1	-0.13038231
247	0x3c9d61a6	0.019211601
248	0xbd8cb9a7	-0.06871348
249	0x3d59010f	0.052979525
250	0xbd5fab8b	-0.054606955
251	0x3c8a0eb3	0.016852712
252	0x3d903d58	0.070429504
253	0x3cf166a0	0.02946788
254	0x3daf0bcc	0.08547172
255	0xbd98042d	-0.074226715

fc3.bias f4 [50]
0	0xbcfb6839	-0.030689346
1	0x3dd17c2a	0.102287605
2	0xbd82db62	-0.063895
3	0x3d96eb5a	0.073691085
4	0xbab1d41c	-0.0013567242
5	0x3d577ef9	0.052611325
6	0x3be58d79	0.0070053902
7	0xbdaff4cb	-0.085916124
8	0x3dc008e7	0.09376698
9	0xbce2d3bf	-0.027688859
10	0xbd2a4927	-0.04157367
11	0x3da6dc3a	0.08147474
12	0x3dc67d14	0.096918255
13	0xbc2d5c80	-0.010581136
14	0x3d8dbec7	0.069211535
15	0xbd3d5671	-0.046225015
16	0xbc797333	-0.01522522
17	0x3dcbadf1	0.09945286
18	0xbd85b441	-0.06528521
19	0xbc9fdffb	-0.019515982
20	0x3c9f643c	0.019456975
21	0x3da3285d	0.07966683
22	0xbc6e1630	-0.014531657
23	0xbcb8ca34	-0.022557355
24	0xbb34f7df	-0.0027613563
25	0x3db2a31f	0.08722519
26	0xbdbe3c4d	-0.09288845
27	0xbcf9af4f	-0.030479101
28	0xbcec5e45	-0.028853545
29	0x3d14cf45	0.03633048
30	0xbce8c493	-0.028414046
31	0x3dc98c2b	0.09841188
32	0xbd5b9abf	-0.053614374
33	0xbc373e68	-0.011184312
34	0xbdbd79ef	-0.092517726
35	0x3d69c9fa	0.057077385
36	0x3dcccaf0	0.09999645
37	0xbd43ae54	-0.047773674
38	0xbc9cf25a	-0.019158531
39	0xbc92731c	-0.017877154
40	0xbda37e80	-0.07983112
41	0x3d30dfe7	0.04318228
42	0xbd879f8d	-0.06622229
43	0x3d9a13bd	0.07523296
44	0x3d8a45fd	0.067516305
45	0x3dba99dc	0.091113776
46	0x3cae28bc	0.021259658
47	0xbcfa6d20	-0.030569613
48	0x3d77e843	0.060524236
49	0x3c8ca3f9	0.017168032

fc4.weight f4 [2, 50]
0	0x3b9eab44	0.004842194
1	0xbddc50be	-0.10757588
2	0xbd216361	-0.039401416
3	0xbdb353f9	-0.08756251
4	0xbe438b03	-0.19095998
5	0xbdc1f5ec	-0.09470734
6	0xbdd26f33	-0.10275116
7	0xbd9bb551	-0.07602943
8	0xbde5e9c5	-0.112262286
9	0x3d94fe87	0.0727511
10	0x3d87cd55	0.06630961
11	0xbdc3a61f	-0.095531695
12	0x3e086dfe	0.13323209
13	0xbb57ace1	-0.003290944
14	0x3d78bbb9	0.0607259
15	0x3ca294b7	0.019846303
16	0x3d4ef137	0.05052301
17	0xbe34334d	-0.17597695
18	0xbcd20ab0	-0.025639862
19	0x3c9f3a19	0.019436883
20	0x3db340c3	0.08752587
21	0xbda87f92	-0.08227457
22	0xbe037b5d	-0.12840028
23	0xbdbb7a34	-0.09154168
24	0xbdbbf952	-0.091784135
25	0xbd9cc9f0	-0.07655704
26	0xbbf95567	-0.0076090577
27	0x3e364928	0.17801344
28	0xbe066193	-0.13123159
29	0x3d84b2bc	0.064794034
30	0xbdde733c	-0.10861823
31	0x3dc7f1e6	0.09762935
32	0x3e0a8e93	0.1353095
33	0xbd54d361	-0.0519594
34	0x3b8aed12	0.0042396868
35	0xbdb8c638	-0.09022182
36	0xbe1ae994	-0.15128165
37	0x3ce85f37	0.028365714
38	0xbd618a39	-0.05506346
39	0x3c7488c0	0.014925182
40	0x3da59ae3	0.08086183
41	0xbdad0eaf	-0.08450066
42	0xbdcacf3a	-0.099028066
43	0xbdac2ce5	-0.084070005
44	0xbe2b23eb	-0.1671292
45	0x3d2473eb	0.04014961
46	0x3d2dd248	0.042436868
47	0x3de7a697	0.11311071
48	0xbcab58f2	-0.020916436
49	0x3e363428	0.17793334
50	0xbd11bad6	-0.03557857
51	0x3e321a1c	0.17392772
52	0xbe38563f	-0.1800165
53	0x3cf9cb99	0.03049259
54	0x3d055d1b	0.032559495
55	0x3e2d79c8	0.16940987
56	0x3de063d4	0.10956541
57	0xbe0e7f1b	-0.13915674
58	0x3d3086bd	0.043097246
59	0xbe166a41	-0.1468897
60	0xbdb6f0fc	-0.08932683
61	0xbcdf484a	-0.02725615
62	0x3cb694e6	0.022287797
63	0xbc9999a5	-0.018750021
64	0xbdad664d	-0.08466778
65	0xbddb7bc2	-0.10716964
66	0xbe283f2a	-0.16430345
67	0x3d4bb499	0.04973278
68	0xbd3174cf	-0.043324288
69	0x3e33ef5f	0.17571782
70	0xbd9fdc4e	-0.07805692
71	0x3de11111	0.10989583
72	0xbd2849e0	-0.041086078
73	0x3d80498c	0.06264028
74	0x3d8883d3	0.066657685
75	0x3da750e9	0.08169729
76	0x3dd97006	0.1061707
77	0x3ca4453f	0.02005255
78	0x3dba59fb	0.09099194
79	0xbe2eaee0	-0.17058897
80	0x3e3548b4	0.17703515
81	0xbde446f7	-0.11146348
82	0xbe1ee3e4	-0.15516621
83	0x3d4ca8f8	0.04996583
84	0xbd5ff4ed	-0.05467694
85	0x3e0f9d81	0.14024927
86	0x3de307a5	0.110854425
87	0xbdf70504	-0.120615035
88	0xbdfece54	-0.12441698
89	0xbe0edcf8	-0.1395148
90	0xbc3a7416	-0.011380216
91	0x3e2b4353	0.16724901
92	0x3cdf35b3	0.027247285
93	0x3c84e6f6	0.016223412
94	0xbcb0d525	-0.02158601
95	0xbe33447e	-0.17506596
96	0x3e3e81b7	0.1860417
97	0x3cda04d7	0.026613636
98	0x3c7c963b	0.015416677
99	0xbd8accd8	-0.06777352

fc4.bias f4 [2]
0	0xbde06844	-0.10957387
1	0xbcb97d4c	-0.022642754
